…
2023-04-13 17:49:04,822 - NVIDIA GeForce RTX 2080 Ti 	 Memory: 10.76GB
2023-04-13 17:49:04,822 - NVIDIA GeForce RTX 2080 Ti 	 Memory: 10.76GB
2023-04-13 17:49:06,817 - 320 training examples, 49 val examples, 32 test examples
2023-04-13 17:49:06,873 - DistributedDataParallel(
  (module): SelfAttentiveCNFSpatiotemporalModel(
    (temporal_model): NeuralPointProcess(
      (hidden_state_dynamics): HiddenStateODEFuncList(
        (odefuncs): ModuleList(
          (0): GRUHiddenStateODEFunc(
            (dstate_net): SequentialDiffEq(
              (layers): ModuleList(
                (0): ConcatLinear_v2(
                  (_layer): Linear(in_features=32, out_features=32, bias=True)
                  (_hyper_bias): Linear(in_features=1, out_features=32, bias=False)
                )
                (1): ActNorm(32)
                (2): Softplus(beta=1, threshold=20)
                (3): ConcatLinear_v2(
                  (_layer): Linear(in_features=32, out_features=32, bias=True)
                  (_hyper_bias): Linear(in_features=1, out_features=32, bias=False)
                )
              )
            )
            (update_net): GRUCell(2, 32)
          )
        )
      )
      (ode_solver): TimeVariableODE(
        method=dopri5, atol=0.0001, rtol=0.0001, energy=0.0001
        (func): IntensityODEFunc(
          (dstate_fn): HiddenStateODEFuncList(
            (odefuncs): ModuleList(
              (0): GRUHiddenStateODEFunc(
                (dstate_net): SequentialDiffEq(
                  (layers): ModuleList(
                    (0): ConcatLinear_v2(
                      (_layer): Linear(in_features=32, out_features=32, bias=True)
                      (_hyper_bias): Linear(in_features=1, out_features=32, bias=False)
                    )
                    (1): ActNorm(32)
                    (2): Softplus(beta=1, threshold=20)
                    (3): ConcatLinear_v2(
                      (_layer): Linear(in_features=32, out_features=32, bias=True)
                      (_hyper_bias): Linear(in_features=1, out_features=32, bias=False)
                    )
                  )
                )
                (update_net): GRUCell(2, 32)
              )
            )
          )
          (intensity_fn): Sequential(
            (0): Linear(in_features=16, out_features=64, bias=True)
            (1): Softplus(beta=1, threshold=20)
            (2): Linear(in_features=64, out_features=1, bias=True)
          )
        )
      )
    )
    (spatial_model): SelfAttentiveCNF(
      (t_embedding): EventTimeEncoding()
      (odefunc): SelfAttentiveODEFunc(
        (embedding): SequentialDiffEq(
          (layers): ModuleList(
            (0): ConcatLinear_v2(
              (_layer): Linear(in_features=82, out_features=64, bias=True)
              (_hyper_bias): Linear(in_features=1, out_features=64, bias=False)
            )
            (1): TimeDependentSwish(
              (beta): Sequential(
                (0): Linear(in_features=1, out_features=64, bias=True)
                (1): Softplus(beta=1, threshold=20)
                (2): Linear(in_features=64, out_features=64, bias=True)
                (3): Softplus(beta=1, threshold=20)
              )
            )
            (2): ConcatLinear_v2(
              (_layer): Linear(in_features=64, out_features=64, bias=True)
              (_hyper_bias): Linear(in_features=1, out_features=64, bias=False)
            )
            (3): TimeDependentSwish(
              (beta): Sequential(
                (0): Linear(in_features=1, out_features=64, bias=True)
                (1): Softplus(beta=1, threshold=20)
                (2): Linear(in_features=64, out_features=64, bias=True)
                (3): Softplus(beta=1, threshold=20)
              )
            )
            (4): ConcatLinear_v2(
              (_layer): Linear(in_features=64, out_features=64, bias=True)
              (_hyper_bias): Linear(in_features=1, out_features=64, bias=False)
            )
          )
        )
        (self_attns): ModuleList(
          (0): L2MultiheadAttention(
            (out_proj): Linear(in_features=64, out_features=64, bias=True)
          )
          (1): L2MultiheadAttention(
            (out_proj): Linear(in_features=64, out_features=64, bias=True)
          )
        )
        (attn_actnorms): ModuleList(
          (0): ActNorm(64)
          (1): ActNorm(64)
        )
        (fcs): ModuleList(
          (0): Sequential(
            (0): Linear(in_features=64, out_features=256, bias=True)
            (1): Softplus(beta=1, threshold=20)
            (2): Linear(in_features=256, out_features=64, bias=True)
          )
          (1): Sequential(
            (0): Linear(in_features=64, out_features=256, bias=True)
            (1): Softplus(beta=1, threshold=20)
            (2): Linear(in_features=256, out_features=64, bias=True)
          )
        )
        (fc_actnorms): ModuleList(
          (0): ActNorm(64)
          (1): ActNorm(64)
        )
        (attn_gates): ModuleList(
          (0): TanhGate()
          (1): TanhGate()
        )
        (fc_gates): ModuleList(
          (0): TanhGate()
          (1): TanhGate()
        )
        (output_proj): SequentialDiffEq(
          (layers): ModuleList(
            (0): ConcatLinear_v2(
              (_layer): Linear(in_features=64, out_features=64, bias=True)
              (_hyper_bias): Linear(in_features=1, out_features=64, bias=False)
            )
            (1): TimeDependentSwish(
              (beta): Sequential(
                (0): Linear(in_features=1, out_features=64, bias=True)
                (1): Softplus(beta=1, threshold=20)
                (2): Linear(in_features=64, out_features=64, bias=True)
                (3): Softplus(beta=1, threshold=20)
              )
            )
            (2): ConcatLinear_v2(
              (_layer): Linear(in_features=64, out_features=2, bias=True)
              (_hyper_bias): Linear(in_features=1, out_features=2, bias=False)
            )
          )
        )
      )
      (cnf): TimeVariableCNF(
        method=dopri5, tol=0.0001, energy=0.0001, jacnorm=0.0001
        (func): SelfAttentiveODEFunc(
          (embedding): SequentialDiffEq(
            (layers): ModuleList(
              (0): ConcatLinear_v2(
                (_layer): Linear(in_features=82, out_features=64, bias=True)
                (_hyper_bias): Linear(in_features=1, out_features=64, bias=False)
              )
              (1): TimeDependentSwish(
                (beta): Sequential(
                  (0): Linear(in_features=1, out_features=64, bias=True)
                  (1): Softplus(beta=1, threshold=20)
                  (2): Linear(in_features=64, out_features=64, bias=True)
                  (3): Softplus(beta=1, threshold=20)
                )
              )
              (2): ConcatLinear_v2(
                (_layer): Linear(in_features=64, out_features=64, bias=True)
                (_hyper_bias): Linear(in_features=1, out_features=64, bias=False)
              )
              (3): TimeDependentSwish(
                (beta): Sequential(
                  (0): Linear(in_features=1, out_features=64, bias=True)
                  (1): Softplus(beta=1, threshold=20)
                  (2): Linear(in_features=64, out_features=64, bias=True)
                  (3): Softplus(beta=1, threshold=20)
                )
              )
              (4): ConcatLinear_v2(
                (_layer): Linear(in_features=64, out_features=64, bias=True)
                (_hyper_bias): Linear(in_features=1, out_features=64, bias=False)
              )
            )
          )
          (self_attns): ModuleList(
            (0): L2MultiheadAttention(
              (out_proj): Linear(in_features=64, out_features=64, bias=True)
            )
            (1): L2MultiheadAttention(
              (out_proj): Linear(in_features=64, out_features=64, bias=True)
            )
          )
          (attn_actnorms): ModuleList(
            (0): ActNorm(64)
            (1): ActNorm(64)
          )
          (fcs): ModuleList(
            (0): Sequential(
              (0): Linear(in_features=64, out_features=256, bias=True)
              (1): Softplus(beta=1, threshold=20)
              (2): Linear(in_features=256, out_features=64, bias=True)
            )
            (1): Sequential(
              (0): Linear(in_features=64, out_features=256, bias=True)
              (1): Softplus(beta=1, threshold=20)
              (2): Linear(in_features=256, out_features=64, bias=True)
            )
          )
          (fc_actnorms): ModuleList(
            (0): ActNorm(64)
            (1): ActNorm(64)
          )
          (attn_gates): ModuleList(
            (0): TanhGate()
            (1): TanhGate()
          )
          (fc_gates): ModuleList(
            (0): TanhGate()
            (1): TanhGate()
          )
          (output_proj): SequentialDiffEq(
            (layers): ModuleList(
              (0): ConcatLinear_v2(
                (_layer): Linear(in_features=64, out_features=64, bias=True)
                (_hyper_bias): Linear(in_features=1, out_features=64, bias=False)
              )
              (1): TimeDependentSwish(
                (beta): Sequential(
                  (0): Linear(in_features=1, out_features=64, bias=True)
                  (1): Softplus(beta=1, threshold=20)
                  (2): Linear(in_features=64, out_features=64, bias=True)
                  (3): Softplus(beta=1, threshold=20)
                )
              )
              (2): ConcatLinear_v2(
                (_layer): Linear(in_features=64, out_features=2, bias=True)
                (_hyper_bias): Linear(in_features=1, out_features=2, bias=False)
              )
            )
          )
        )
      )
      (base_cnf): TimeVariableCNF(
        method=dopri5, tol=1e-06, energy=0.0001, jacnorm=0.0001
        (func): SequentialDiffEq(
          (layers): ModuleList(
            (0): ConcatLinear_v2(
              (_layer): Linear(in_features=2, out_features=64, bias=True)
              (_hyper_bias): Linear(in_features=1, out_features=64, bias=False)
            )
            (1): TimeDependentSwish(
              (beta): Sequential(
                (0): Linear(in_features=1, out_features=64, bias=True)
                (1): Softplus(beta=1, threshold=20)
                (2): Linear(in_features=64, out_features=64, bias=True)
                (3): Softplus(beta=1, threshold=20)
              )
            )
            (2): ConcatLinear_v2(
              (_layer): Linear(in_features=64, out_features=64, bias=True)
              (_hyper_bias): Linear(in_features=1, out_features=64, bias=False)
            )
            (3): TimeDependentSwish(
              (beta): Sequential(
                (0): Linear(in_features=1, out_features=64, bias=True)
                (1): Softplus(beta=1, threshold=20)
                (2): Linear(in_features=64, out_features=64, bias=True)
                (3): Softplus(beta=1, threshold=20)
              )
            )
            (4): ConcatLinear_v2(
              (_layer): Linear(in_features=64, out_features=64, bias=True)
              (_hyper_bias): Linear(in_features=1, out_features=64, bias=False)
            )
            (5): TimeDependentSwish(
              (beta): Sequential(
                (0): Linear(in_features=1, out_features=64, bias=True)
                (1): Softplus(beta=1, threshold=20)
                (2): Linear(in_features=64, out_features=64, bias=True)
                (3): Softplus(beta=1, threshold=20)
              )
            )
            (6): ConcatLinear_v2(
              (_layer): Linear(in_features=64, out_features=2, bias=True)
              (_hyper_bias): Linear(in_features=1, out_features=2, bias=False)
            )
          )
        )
      )
      (base_dist_params): Sequential(
        (0): Linear(in_features=80, out_features=128, bias=True)
        (1): ReLU(inplace=True)
        (2): Linear(in_features=128, out_features=4, bias=True)
      )
    )
  )
)
2023-04-13 17:49:12,979 - Iter 0 | Epoch 0 | LR 0.00100 | Time 6.1 | Temporal -1.3556(-1.3556) | Spatial -2.8454(-2.8454) | GradNorm 14.75(14.75) | NFE 2830 | Mem 2612.14 MB
2023-04-13 17:49:45,719 - [Test] Iter 0 | Val Temporal -0.7159 | Val Spatial -2.8958 | Test Temporal -0.6779 | Test Spatial -2.8155
2023-04-13 17:50:49,018 - Iter 10 | Epoch 0 | LR 0.00100 | Time 63.3 | Temporal 0.2868(-1.1589) | Spatial -2.8217(-2.8453) | GradNorm 10.82(16.99) | NFE 3060 | Mem 2619.83 MB
…
