…
2023-04-17 22:28:20,085 - NVIDIA GeForce RTX 2080 Ti 	 Memory: 10.76GB
2023-04-17 22:28:20,085 - NVIDIA GeForce RTX 2080 Ti 	 Memory: 10.76GB
2023-04-17 22:28:22,186 - 456 training examples, 25 val examples, 4 test examples
2023-04-17 22:28:22,230 - DistributedDataParallel(
  (module): SelfAttentiveCNFSpatiotemporalModel(
    (temporal_model): NeuralPointProcess(
      (hidden_state_dynamics): HiddenStateODEFuncList(
        (odefuncs): ModuleList(
          (0): GRUHiddenStateODEFunc(
            (dstate_net): SequentialDiffEq(
              (layers): ModuleList(
                (0): ConcatLinear_v2(
                  (_layer): Linear(in_features=32, out_features=32, bias=True)
                  (_hyper_bias): Linear(in_features=1, out_features=32, bias=False)
                )
                (1): ActNorm(32)
                (2): Softplus(beta=1, threshold=20)
                (3): ConcatLinear_v2(
                  (_layer): Linear(in_features=32, out_features=32, bias=True)
                  (_hyper_bias): Linear(in_features=1, out_features=32, bias=False)
                )
              )
            )
            (update_net): GRUCell(2, 32)
          )
        )
      )
      (ode_solver): TimeVariableODE(
        method=dopri5, atol=0.0001, rtol=0.0001, energy=0.0001
        (func): IntensityODEFunc(
          (dstate_fn): HiddenStateODEFuncList(
            (odefuncs): ModuleList(
              (0): GRUHiddenStateODEFunc(
                (dstate_net): SequentialDiffEq(
                  (layers): ModuleList(
                    (0): ConcatLinear_v2(
                      (_layer): Linear(in_features=32, out_features=32, bias=True)
                      (_hyper_bias): Linear(in_features=1, out_features=32, bias=False)
                    )
                    (1): ActNorm(32)
                    (2): Softplus(beta=1, threshold=20)
                    (3): ConcatLinear_v2(
                      (_layer): Linear(in_features=32, out_features=32, bias=True)
                      (_hyper_bias): Linear(in_features=1, out_features=32, bias=False)
                    )
                  )
                )
                (update_net): GRUCell(2, 32)
              )
            )
          )
          (intensity_fn): Sequential(
            (0): Linear(in_features=16, out_features=64, bias=True)
            (1): Softplus(beta=1, threshold=20)
            (2): Linear(in_features=64, out_features=1, bias=True)
          )
        )
      )
    )
    (spatial_model): SelfAttentiveCNF(
      (t_embedding): EventTimeEncoding()
      (odefunc): SelfAttentiveODEFunc(
        (embedding): SequentialDiffEq(
          (layers): ModuleList(
            (0): ConcatLinear_v2(
              (_layer): Linear(in_features=82, out_features=64, bias=True)
              (_hyper_bias): Linear(in_features=1, out_features=64, bias=False)
            )
            (1): TimeDependentSwish(
              (beta): Sequential(
                (0): Linear(in_features=1, out_features=64, bias=True)
                (1): Softplus(beta=1, threshold=20)
                (2): Linear(in_features=64, out_features=64, bias=True)
                (3): Softplus(beta=1, threshold=20)
              )
            )
            (2): ConcatLinear_v2(
              (_layer): Linear(in_features=64, out_features=64, bias=True)
              (_hyper_bias): Linear(in_features=1, out_features=64, bias=False)
            )
            (3): TimeDependentSwish(
              (beta): Sequential(
                (0): Linear(in_features=1, out_features=64, bias=True)
                (1): Softplus(beta=1, threshold=20)
                (2): Linear(in_features=64, out_features=64, bias=True)
                (3): Softplus(beta=1, threshold=20)
              )
            )
            (4): ConcatLinear_v2(
              (_layer): Linear(in_features=64, out_features=64, bias=True)
              (_hyper_bias): Linear(in_features=1, out_features=64, bias=False)
            )
          )
        )
        (self_attns): ModuleList(
          (0): L2MultiheadAttention(
            (out_proj): Linear(in_features=64, out_features=64, bias=True)
          )
          (1): L2MultiheadAttention(
            (out_proj): Linear(in_features=64, out_features=64, bias=True)
          )
        )
        (attn_actnorms): ModuleList(
          (0): ActNorm(64)
          (1): ActNorm(64)
        )
        (fcs): ModuleList(
          (0): Sequential(
            (0): Linear(in_features=64, out_features=256, bias=True)
            (1): Softplus(beta=1, threshold=20)
            (2): Linear(in_features=256, out_features=64, bias=True)
          )
          (1): Sequential(
            (0): Linear(in_features=64, out_features=256, bias=True)
            (1): Softplus(beta=1, threshold=20)
            (2): Linear(in_features=256, out_features=64, bias=True)
          )
        )
        (fc_actnorms): ModuleList(
          (0): ActNorm(64)
          (1): ActNorm(64)
        )
        (attn_gates): ModuleList(
          (0): TanhGate()
          (1): TanhGate()
        )
        (fc_gates): ModuleList(
          (0): TanhGate()
          (1): TanhGate()
        )
        (output_proj): SequentialDiffEq(
          (layers): ModuleList(
            (0): ConcatLinear_v2(
              (_layer): Linear(in_features=64, out_features=64, bias=True)
              (_hyper_bias): Linear(in_features=1, out_features=64, bias=False)
            )
            (1): TimeDependentSwish(
              (beta): Sequential(
                (0): Linear(in_features=1, out_features=64, bias=True)
                (1): Softplus(beta=1, threshold=20)
                (2): Linear(in_features=64, out_features=64, bias=True)
                (3): Softplus(beta=1, threshold=20)
              )
            )
            (2): ConcatLinear_v2(
              (_layer): Linear(in_features=64, out_features=2, bias=True)
              (_hyper_bias): Linear(in_features=1, out_features=2, bias=False)
            )
          )
        )
      )
      (cnf): TimeVariableCNF(
        method=dopri5, tol=0.0001, energy=0.0001, jacnorm=0.0001
        (func): SelfAttentiveODEFunc(
          (embedding): SequentialDiffEq(
            (layers): ModuleList(
              (0): ConcatLinear_v2(
                (_layer): Linear(in_features=82, out_features=64, bias=True)
                (_hyper_bias): Linear(in_features=1, out_features=64, bias=False)
              )
              (1): TimeDependentSwish(
                (beta): Sequential(
                  (0): Linear(in_features=1, out_features=64, bias=True)
                  (1): Softplus(beta=1, threshold=20)
                  (2): Linear(in_features=64, out_features=64, bias=True)
                  (3): Softplus(beta=1, threshold=20)
                )
              )
              (2): ConcatLinear_v2(
                (_layer): Linear(in_features=64, out_features=64, bias=True)
                (_hyper_bias): Linear(in_features=1, out_features=64, bias=False)
              )
              (3): TimeDependentSwish(
                (beta): Sequential(
                  (0): Linear(in_features=1, out_features=64, bias=True)
                  (1): Softplus(beta=1, threshold=20)
                  (2): Linear(in_features=64, out_features=64, bias=True)
                  (3): Softplus(beta=1, threshold=20)
                )
              )
              (4): ConcatLinear_v2(
                (_layer): Linear(in_features=64, out_features=64, bias=True)
                (_hyper_bias): Linear(in_features=1, out_features=64, bias=False)
              )
            )
          )
          (self_attns): ModuleList(
            (0): L2MultiheadAttention(
              (out_proj): Linear(in_features=64, out_features=64, bias=True)
            )
            (1): L2MultiheadAttention(
              (out_proj): Linear(in_features=64, out_features=64, bias=True)
            )
          )
          (attn_actnorms): ModuleList(
            (0): ActNorm(64)
            (1): ActNorm(64)
          )
          (fcs): ModuleList(
            (0): Sequential(
              (0): Linear(in_features=64, out_features=256, bias=True)
              (1): Softplus(beta=1, threshold=20)
              (2): Linear(in_features=256, out_features=64, bias=True)
            )
            (1): Sequential(
              (0): Linear(in_features=64, out_features=256, bias=True)
              (1): Softplus(beta=1, threshold=20)
              (2): Linear(in_features=256, out_features=64, bias=True)
            )
          )
          (fc_actnorms): ModuleList(
            (0): ActNorm(64)
            (1): ActNorm(64)
          )
          (attn_gates): ModuleList(
            (0): TanhGate()
            (1): TanhGate()
          )
          (fc_gates): ModuleList(
            (0): TanhGate()
            (1): TanhGate()
          )
          (output_proj): SequentialDiffEq(
            (layers): ModuleList(
              (0): ConcatLinear_v2(
                (_layer): Linear(in_features=64, out_features=64, bias=True)
                (_hyper_bias): Linear(in_features=1, out_features=64, bias=False)
              )
              (1): TimeDependentSwish(
                (beta): Sequential(
                  (0): Linear(in_features=1, out_features=64, bias=True)
                  (1): Softplus(beta=1, threshold=20)
                  (2): Linear(in_features=64, out_features=64, bias=True)
                  (3): Softplus(beta=1, threshold=20)
                )
              )
              (2): ConcatLinear_v2(
                (_layer): Linear(in_features=64, out_features=2, bias=True)
                (_hyper_bias): Linear(in_features=1, out_features=2, bias=False)
              )
            )
          )
        )
      )
      (base_cnf): TimeVariableCNF(
        method=dopri5, tol=1e-06, energy=0.0001, jacnorm=0.0001
        (func): SequentialDiffEq(
          (layers): ModuleList(
            (0): ConcatLinear_v2(
              (_layer): Linear(in_features=2, out_features=64, bias=True)
              (_hyper_bias): Linear(in_features=1, out_features=64, bias=False)
            )
            (1): TimeDependentSwish(
              (beta): Sequential(
                (0): Linear(in_features=1, out_features=64, bias=True)
                (1): Softplus(beta=1, threshold=20)
                (2): Linear(in_features=64, out_features=64, bias=True)
                (3): Softplus(beta=1, threshold=20)
              )
            )
            (2): ConcatLinear_v2(
              (_layer): Linear(in_features=64, out_features=64, bias=True)
              (_hyper_bias): Linear(in_features=1, out_features=64, bias=False)
            )
            (3): TimeDependentSwish(
              (beta): Sequential(
                (0): Linear(in_features=1, out_features=64, bias=True)
                (1): Softplus(beta=1, threshold=20)
                (2): Linear(in_features=64, out_features=64, bias=True)
                (3): Softplus(beta=1, threshold=20)
              )
            )
            (4): ConcatLinear_v2(
              (_layer): Linear(in_features=64, out_features=64, bias=True)
              (_hyper_bias): Linear(in_features=1, out_features=64, bias=False)
            )
            (5): TimeDependentSwish(
              (beta): Sequential(
                (0): Linear(in_features=1, out_features=64, bias=True)
                (1): Softplus(beta=1, threshold=20)
                (2): Linear(in_features=64, out_features=64, bias=True)
                (3): Softplus(beta=1, threshold=20)
              )
            )
            (6): ConcatLinear_v2(
              (_layer): Linear(in_features=64, out_features=2, bias=True)
              (_hyper_bias): Linear(in_features=1, out_features=2, bias=False)
            )
          )
        )
      )
      (base_dist_params): Sequential(
        (0): Linear(in_features=80, out_features=128, bias=True)
        (1): ReLU(inplace=True)
        (2): Linear(in_features=128, out_features=4, bias=True)
      )
    )
  )
)
2023-04-17 22:28:24,119 - Iter 0 | Epoch 0 | LR 0.00100 | Time 1.9 | Temporal -5.2404(-5.2404) | Spatial -2.9057(-2.9057) | GradNorm 30.72(30.72) | NFE 448 | Mem 2625.45 MB
2023-04-17 22:28:27,117 - [Test] Iter 0 | Val Temporal -1.8360 | Val Spatial -2.8294 | Test Temporal -1.1282 | Test Spatial -3.0601
2023-04-17 22:28:44,140 - Iter 10 | Epoch 3 | LR 0.00100 | Time 17.0 | Temporal -2.7537(-4.5992) | Spatial -2.8838(-2.8921) | GradNorm 18.04(27.58) | NFE 388 | Mem 2628.84 MB
…
